ml/models/gnn_model.pt (torch, 37656 bytes, 7 tensors)

conv1.lin_l.weight f4 [64, 1]
0.68347806 0.35574532 -0.45258358 -0.40141022 -0.5669907 0.29481637 -0.6938942 -0.8277261
0.15856442 0.39405143 0.24949628 0.14612927 0.24561584 0.6711939 -0.6912936 -0.4574522
-0.8263344 -0.7510821 -0.8582337 0.13299452 0.6879022 -0.5752345 -0.4846938 -0.21800683
-0.7967457 -0.24652977 -0.049260072 -0.11669556 0.37776622 -0.44799918 -0.066302896 0.91549194
-1.1105051 -0.276457 0.50946826 0.04389789 -0.18165107 -0.659152 0.40824965 0.6031419
-0.43062183 0.279889 0.57350665 0.5074081 -0.40524128 -0.27164233 0.73629373 -0.12660535
-0.8406924 -0.6451328 -0.3103407 0.5500902 -0.7115437 0.31875873 -0.26436645 1.3709238
-0.34057605 0.51278424 -0.5190868 0.852845 -0.49886394 0.11478997 0.09617729 0.49071
00000000: 6bf8 2e3f 4024 b63e 09b9 e7be a485 cdbe
00000010: 4d26 11bf 2cf2 963e 0da3 31bf dce5 53bf
00000020: b65e 223e 1cc1 c93e f47b 7f3e e9a2 153e
00000030: b882 7b3e 5dd3 2b3f 9ef8 30bf 2d37 eabe
00000040: a78a 53bf eb46 40bf 34b5 5bbf b72f 083e
00000050: 5c1a 303f 9142 13bf c929 f8be 2f3d 5fbe
00000060: 87f7 4bbf 4d72 7cbe eec4 49bd 15fe eebd
00000070: 936a c13e 2660 e5be d0c9 87bd ae5d 6a3f
00000080: 0825 8ebf c68b 8dbe 836c 023f 46ce 333d
00000090: bd02 3abe 2fbe 28bf 1906 d13e 8267 1a3f
000000a0: 777a dcbe 9c4d 8f3e 55d1 123f 7fe5 013f
000000b0: c97b cfbe b414 8bbe bf7d 3c3f d5a4 01be
000000c0: 9e37 57bf 6c27 25bf fae4 9ebe b6d2 0c3f
000000d0: ba27 36bf 5834 a33e 0a5b 87be 6e7a af3f
000000e0: fc5f aebe d445 033f dfe2 04bf 0d54 5a3f
000000f0: 186b ffbe 0117 eb3d 99f8 c43d 573e fb3e

conv1.lin_l.bias f4 [64]
0.44091216 -0.7073989 0.5983807 0.15812849 0.4605335 -0.77355623 -0.6381227 -0.37638345
-0.37529704 0.60181975 0.7486187 0.9135544 -0.75067556 0.12911175 -0.7634883 0.6895613
-0.23350793 0.38830394 0.7723477 -0.5272433 -0.85359484 -0.9941081 -0.07156561 -0.21055505
-0.16341965 -0.122223765 0.8042172 0.43670738 0.020693664 0.5194111 0.22730769 0.92774314
-0.7357254 -0.29906374 -0.4971429 -0.87059903 0.23168282 0.4171145 0.8243997 0.63232607
-0.4334659 0.61795866 0.076287016 0.065163314 -0.26279032 -0.20587185 0.24727029 0.50876456
0.61889577 0.33706477 0.115288 -0.40570062 -0.526541 -0.3213227 -0.28110522 -0.7955949
0.6046132 0.6362389 -0.10716794 0.40790576 0.28430855 0.8912656 -0.088306755 -0.55222636
00000000: 3dbf e13e 1818 35bf 7a2f 193f 6fec 213e
00000010: 0ccb eb3e c807 46bf 025c 23bf 55b5 c0be
00000020: ef26 c0be dc10 1a3f 7aa5 3f3f b3de 693f
00000030: 462c 40bf df35 043e f873 43bf 1787 303f
00000040: b41c 6fbe c6cf c63e 94b8 453f 6bf9 06bf
00000050: 3185 5abf de7d 7ebf fe90 92bd be9b 57be
00000060: 7b57 27be 7450 fabd 2ee1 4d3f 1c98 df3e
00000070: c285 a93c 20f8 043f 59c3 683e 9380 6d3f
00000080: 8058 3cbf e21e 99be 8489 febe 94df 5ebf
00000090: 433e 6d3e 0890 d53e dc0b 533f 1fe0 213f
000000a0: 3eef ddbe 8a32 1e3f 5e3c 9c3d 5874 853d
000000b0: 748c 86be 12d0 52be 6c34 7d3e 653e 023f
000000c0: f46f 1e3f c193 ac3e 1d1c ec3d feb7 cfbe
000000d0: 64cb 06bf 6984 a4be 06ed 8fbe 1bac 4bbf
000000e0: eec7 1a3f 8de0 223f dd7a dbbd 06d9 d03e
000000f0: e490 913e fb29 643f 2cda b4bd b55e 0dbf

conv1.lin_r.weight f4 [64, 1]
-0.45311972 -0.13817883 0.5945074 0.2622108 0.0896748 0.13993822 -0.7452429 -0.5745378
-0.3804118 0.14300025 0.47683463 -0.72014016 -0.7338814 0.77525604 -0.8450383 -0.27918652
-0.20718704 0.17697181 0.65466267 -0.40620655 -0.6267469 0.23815821 -0.49729943 0.4832858
-0.74113774 -0.19934036 -0.29641968 0.27755994 0.10800108 -0.16673847 -0.092018895 -0.3627322
0.24264738 0.66929317 1.0475175 -0.7045077 -0.068005234 0.49840555 0.716007 -0.76348805
0.9786989 -0.7065498 -0.08857298 0.15387385 -0.40391785 -0.72847635 0.52087116 -0.27420995
0.5141521 0.29801685 -0.32169646 0.88467413 -0.685952 -0.33964297 0.6336198 -0.42276362
0.67233896 0.14840746 0.24482854 -0.10020622 -0.92580676 -0.78910613 -0.61374813 -0.86640674
00000000: 4fff e7be c07e 0dbe a331 183f 7e40 863e
00000010: 6ca7 b73d f74b 0f3e 3dc8 3ebf e914 13bf
00000020: 56c5 c2be a86e 123e ab23 f43e 1b5b 38bf
00000030: a7df 3bbf 2e77 463f 6e54 58bf 89f1 8ebe
00000040: d728 54be 1938 353e f997 273f 4efa cfbe
00000050: 7c72 20bf bfdf 733e 089e febe 3d71 f73e
00000060: 34bb 3dbf e11f 4cbe 52c4 97be 561c 8e3e
00000070: ac2f dd3d 7dbd 2abe 6774 bcbd 09b8 b9be
00000080: 8e78 783e cc56 2b3f 0e15 863f 9e5a 34bf
00000090: 5446 8bbd 032f ff3e 3c4c 373f f473 43bf
000000a0: 038c 7a3f 73e0 34bf c065 b5bd 1b91 1d3e
000000b0: 52ce cebe 6d7d 3abf d057 053f 3f65 8cbe
000000c0: 799f 033f aa95 983e 66b5 a4be 017a 623f
000000d0: 8d9a 2fbf afe5 adbe e834 223f 7974 d8be
000000e0: 681e 2c3f 20f8 173e 55b4 7a3e eb38 cdbd
000000f0: ac01 6dbf dc02 4abf 991e 1dbf d5cc 5dbf

conv2.lin_l.weight f4 [64, 64]
0.0954989 -0.118743345 0.018047687 0.081420094 0.033259187 -0.039291292 0.044092 0.1457708
-0.050093103 0.09463004 0.12746301 0.15091255 0.06010398 0.0844467 -0.10771815 0.13579927
0.092837624 0.014339105 0.1027223 -0.071675636 -0.44688672 -0.054673746 -0.018433059 -0.034144837
0.022464179 -0.08794514 0.13101314 0.097288445 0.09166246 0.11266697 0.02620925 0.17543739
-0.062202364 -0.29374173 -0.24472462 -0.035522178 0.032080837 -0.10555152 -0.022510823 0.01974405
-0.35727137 -0.021745209 0.124366015 0.023384599 0.057191618 0.16183075 0.07091668 0.044328295
-0.024051638 0.07536173 0.011129594 -0.12522994 -0.010486831 0.06354637 -0.33467436 -0.45503363
-0.016329512 0.09414692 -0.1302572 -0.049038623 -0.026764069 0.1318428 0.154949 0.072422795
0.055640794 -0.124815375 0.10603917 0.124384254 0.041724734 -0.07996993 -0.14076327 0.05203788
0.002492325 0.14676875 -0.051298305 0.037586454 0.04065089 0.013833848 -0.16373226 0.030818969
-0.19165076 0.118281834 0.09432336 -0.032031827 -0.28999087 -0.042850196 0.00863971 0.1441822
-0.06761994 0.002927433 -0.071505085 -0.08185515 0.15689072 0.043688413 -0.041058075 -0.120490246
0.10624967 0.019075414 -0.0149915805 -0.18012713 0.11419601 0.1348145 -0.04727243 -0.0047332933
-0.016242543 -0.039793257 0.047683306 0.09028895 0.0040446455 -0.10565498 0.020479387 -0.08500555
-0.051111996 0.06530763 -0.15825781 0.1382562 0.006828354 -0.14573234 -0.089894466 -0.10837349
0.06528149 0.021476228 0.013764453 -0.08064535 0.03577669 -0.13757393 -0.0015220039 0.004575921
-0.0006794936 0.10305481 -0.068824135 0.029969007 0.013358219 0.048967198 0.075332746 0.062394563
0.02882659 0.025857482 -0.11272822 -0.0942469 -0.060916558 0.09275862 0.1280246 -0.029484363
-0.04650631 -0.027179545 -0.12135626 -0.09461762 0.40703136 0.09203325 -0.015565758 0.09614336
-0.0816676 -0.0013441861 0.06162402 -0.09197596 -0.0329546 0.055931453 0.019140404 -0.019447522
0.13562368 0.33542246 0.30673212 0.18317206 -0.07244535 -0.041358214 0.046370994 -0.072923996
0.20268127 -0.13330217 0.004616173 -0.12037407 0.050499644 -0.15736781 0.03597644 0.0380042
-0.02067511 -0.049361806 -0.1357451 0.12033681 0.016416034 -0.13980928 0.23251489 0.5157788
0.045485806 0.06717728 0.111408524 0.029713979 0.07939508 0.008078207 -0.03803152 0.08331043
-0.14638034 -0.041050524 0.12833233 0.0035851162 0.09743457 0.026136681 -0.19581507 -0.095863976
-0.0031670113 -0.038244117 0.024570286 0.042180702 -0.26976302 0.15094534 -0.15810217 -0.079418965
-0.014847201 -0.083556056 0.0007239388 -0.098854356 -0.37420604 0.0501592 -0.059932426 -0.19957131
0.0034628087 0.047520373 0.0428547 0.06507812 -0.030199619 0.058010817 0.023967592 -0.10540314
-0.0039050675 -0.21373346 -0.1600134 -0.26215774 -0.10232593 -0.07065391 0.11253215 -0.03564128
-0.27316532 -0.02152991 -0.07845903 -0.019349858 -0.11492017 0.04841677 -0.08477131 -0.035111766
-0.030740755 -0.0836312 -0.066144265 -0.25604272 -0.23729041 -0.13230246 -0.31315896 -0.4295658
-0.0043934183 0.04539373 -0.10615502 -0.1314269 -0.09653928 -0.12986158 -0.1017009 -0.08247757
00000000: ed94 c33d b62f f3bd bed8 933c 94bf a63d
00000010: c93a 083d e8ef 20bd d099 343d f144 153e
00000020: 6d2e 4dbd 65cd c13d aa85 023e d288 1a3e
00000030: 972f 763d 64f2 ac3d 559b dcbd f70e 0b3e
00000040: a721 be3d 91ee 6a3c 1260 d23d adca 92bd
00000050: 56ce e4be 94f1 5fbd ed00 97bc 75db 0bbd
00000060: cc06 b83c 951c b4bd 4f28 063e 2a3f c73d
00000070: 87b9 bb3d f1bd e63d c8b4 d63c dca5 333e
00000080: e8c7 7ebd 5165 96be 1799 7abe b47f 11bd
00000090: 3267 033d 652b d8bd 9e68 b8bc 46be a13c
000000a0: 46ec b6be 0223 b2bc 9cb3 fe3d 0f91 bf3c
000000b0: c241 6a3d f6b6 253e c43c 913d 9691 353d
000000c0: f107 c5bc 4057 9a3d e758 363c 473c 00be
000000d0: f5d0 2bbc 9924 823d 705a abbe 2bfa e8be
000000e0: 78c5 85bc 1ad0 c03d 2562 05be b9dc 48bd
000000f0: 5240 dbbc cd01 073e f3aa 1e3e 6752 943d
00000100: 9ae7 633d 349f ffbd 102b d93d 2cbd fe3d
00000110: 8ee7 2a3d 46c7 a3bd 3f24 10be ac25 553d
00000120: 4656 233b 8c4a 163e 2c1e 52bd 41f4 193d
00000130: 8c81 263d 5da7 623c 6ea9 27be 1078 fc3c
00000140: 1940 44be bf3d f23d 9b2c c13d ce33 03bd
00000150: af79 94be b083 2fbd 928d 0d3c 80a4 133e
00000160: 537c 8abd 2dda 3f3b 4271 92bd aca3 a7bd
00000170: f6a7 203e 9ff2 323d 832c 28bd 97c3 f6bd
00000180: 6d99 d93d 0b44 9c3c 3f9f 75bc 3f73 38be
00000190: 99df e93d d00c 0a3e bca0 41bd be19 9bbb
000001a0: 150f 85bc 41fe 22bd 924f 433d 6ae9 b83d
000001b0: f288 843b a361 d8bd 63c4 a73c 6417 aebd
000001c0: d05a 51bd 02c0 853d 560e 22be 0993 0d3e
000001d0: 63c0 df3b dc3a 15be 971a b8bd ecf2 ddbd
000001e0: 4db2 853d eaee af3c 4d84 613c 6429 a5bd
000001f0: 948a 123d 2ee0 0cbe fa7d c7ba 9cf1 953b
00000200: 0b20 32ba 660e d33d abf3 8cbd 9081 f53c
00000210: 6edc 5a3c d491 483d 0e48 9a3d 7191 7f3d
00000220: be25 ec3c 12d3 d33c 0ede e6bd 8504 c1bd
00000230: a483 79bd 3bf8 bd3d e118 033e 3189 f1bc
00000240: 677d 3ebd a3a7 debc a189 f8bd e2c6 c1bd
00000250: 6a66 d03e ee7b bc3d 8507 7fbc cfe6 c43d
00000260: 5841 a7bd 672f b0ba 7869 7c3d e45d bcbd
00000270: 67fb 06bd 6118 653d 56cc 9c3c 6950 9fbc
00000280: efe0 0a3e 7ebc ab3e fe0b 9d3e 7591 3b3e
00000290: 3a5e 94bd 3b67 29bd 83ef 3d3d 2d59 95bd
000002a0: ae8b 4f3e 5d80 08be 4443 973b ae86 f6bd
000002b0: b7d8 4e3d 0725 21be 085c 133d 4baa 1b3d
000002c0: d95e a9bc 9b2f 4abd c300 0bbe 2573 f63d
000002d0: eb7a 863c 2a2a 0fbe 6218 6e3e 140a 043f
000002e0: 534f 3a3d 3e94 893d 272a e43d bb6a f33c
000002f0: e399 a23d 755a 043c f0c6 1bbd a99e aa3d
00000300: bae4 15be 9824 28bd 8d69 033e 45f4 6a3b
00000310: c78b c73d 981c d63c bf83 48be 5554 c4bd
00000320: a28d 4fbb dda5 1cbd a047 c93c acc5 2c3d
00000330: 611e 8abe 6a91 1a3e 89e5 21be 69a6 a2bd
00000340: ad41 73bc 701f abbd b6c6 3d3a 2774 cabd
00000350: ef97 bfbe bc73 4d3d b47b 75bd 6c5c 4cbe
00000360: 4af0 623b b9a4 423d 6988 2f3d ad47 853d
00000370: 3165 f7bc c09c 6d3d af57 c43c 9add d7bd
00000380: 29ec 7fbb f2dc 5abe 8dda 23be 8a39 86be
00000390: 4290 d1bd ffb2 90bd 4177 e63d 97fc 11bd
000003a0: 53dc 8bbe 7e5f b0bc 21af a0bd 9883 9ebc
000003b0: 445b ebbd aa50 463d 959c adbd 5bd1 0fbd
000003c0: 09d4 fbbc d646 abbd a576 87bd 0818 83be
000003d0: 42fc 72be 4c7a 07be 5f56 a0be 0cf0 dbbe
000003e0: aaf6 8fbb c7ee 393d ce67 d9bd c694 06be
000003f0: 63b6 c5bd 6ffa 04be 9048 d0bd 00ea a8bd

conv2.lin_l.bias f4 [64]
0.13021652 0.038840104 -0.10494067 -0.0129115265 0.07884535 0.14799817 -0.05229653 -0.07849645
-0.15644775 0.14031592 0.014625391 0.006938234 0.11619806 0.021628516 0.0062350994 0.06893442
0.04810376 0.08968777 0.023197057 -0.026818283 -0.04654745 -0.11711477 0.051097985 0.014115557
0.10931992 -0.016300654 0.06506977 0.0802132 -0.119287945 0.032124143 -0.050336465 -0.02988961
-0.06940218 0.026884597 -0.060910016 -0.036138073 -0.14246888 -0.07029933 0.07647776 -0.10417256
-0.03903104 0.04227552 0.12049539 -0.12978469 -0.04139313 0.081533395 -0.07572127 -0.032199256
-0.14956917 -0.066386946 0.061095744 -0.06508442 -0.02115073 0.10974162 0.085008934 -0.02585479
-0.064684786 0.08443135 -0.019273447 0.18550627 -0.104584545 -0.010482503 0.07238125 0.014261265
00000000: 7b57 053e cd16 1f3d 22eb d6bd de8a 53bc
00000010: ac79 a13d d58c 173e e334 56bd bfc2 a0bd
00000020: d733 20be faae 0f3e 569f 6f3c 205a e33b
00000030: 40f9 ed3d 492e b13c ce4f cc3b 7d2d 8d3d
00000040: 7308 453d 39ae b73d c107 be3c 04b2 dbbc
00000050: 8aa8 3ebd ded9 efbd 1f4c 513d f044 673c
00000060: 1fe3 df3d f388 85bc 4d43 853d d146 a43d
00000070: 3d4d f4bd 9b94 033d 9c2d 4ebd 0edb f4bc
00000080: bb22 8ebd 163d dc3c c87c 79bd 8405 14bd
00000090: 5de3 11be 18f9 8fbd 5fa0 9c3d 6c58 d5bd
000000a0: 03df 1fbd 1829 2d3d 49c6 f63d 47e6 04be
000000b0: d88b 29bd fbfa a63d c113 9bbd 5ee3 03bd
000000c0: a928 19be e1f5 87bd 883f 7a3d fb4a 85bd
000000d0: 4c44 adbc 37c0 e03d 2a19 ae3d 6dcd d3bc
000000e0: 7579 84bd 58ea ac3d 59e3 9dbc 5bf5 3d3e
000000f0: 6c30 d6bd cebe 2bbc 9f3c 943d 15a8 693c

conv2.lin_r.weight f4 [64, 64]
0.07246141 0.0013694018 -0.013396874 0.055067994 -0.053518683 -0.14573722 0.050049506 0.1769027
-0.11784303 -0.066752486 0.09715171 0.12848298 0.0010813616 -0.04946671 -0.035556134 0.10678242
0.005998279 0.0035443779 -0.040827047 -0.06126981 0.23307525 -0.020217538 -0.023827735 -0.03246239
0.037670296 0.0181584 0.056696497 -0.075561196 0.06406538 -0.023459148 0.10631301 -0.072153516
-0.0055197254 -0.08321678 -0.014829214 -0.12374132 0.14171632 -0.061117526 0.067190535 0.180347
0.12089413 0.060147632 -0.07512239 0.031385228 0.12849353 0.18507138 0.1219452 -0.03387701
0.06352984 0.07471057 0.06076309 -0.003832443 0.10936708 0.033081003 -0.075396985 0.82466435
-0.068290085 -0.04795783 0.004005066 -0.015275726 0.03966905 0.069965996 0.1896445 -0.015897563
-0.06448883 -0.10092124 -0.020775976 -0.006792885 -0.13005583 0.0010766382 0.15165493 0.033911902
-0.13172163 -0.100583814 0.042043943 -0.008328583 0.06588038 -0.010210053 0.056022927 -0.05188662
-0.032591198 0.062976815 0.109670594 0.117429845 0.4833358 -0.13724312 0.063201725 0.17667496
-0.12066235 0.02894649 -0.07118651 0.10740928 0.06408138 -0.17152596 0.055056177 -0.13161717
-0.069129616 0.21681099 0.05380526 0.26142612 0.028298387 -0.021371957 -0.04425307 -0.116805755
0.16280037 -0.028587908 -0.07503183 0.08130903 -0.12123145 -0.0018151895 -0.07922422 0.072186604
0.0203547 0.0048518577 -0.096545406 0.11029126 0.03399401 0.028276186 0.089442015 0.5530094
0.009424507 0.032902427 0.03133344 -0.04150759 -0.08181568 -0.06279323 -0.130126 -0.03785311
-0.0018536757 -0.11028202 -0.08085463 -0.06627088 -0.10923854 0.1562661 -0.03759211 -0.018265773
-0.094782084 0.010392148 -0.01689436 -0.1582141 0.18184267 -0.018881356 -0.013678335 -0.101704136
-0.04110325 0.046112914 -0.03709153 -0.028103288 0.49386802 -0.03938087 -0.06545054 0.011999199
-0.13760456 -0.08668153 0.063309446 -0.10966414 -0.07284738 0.00082090613 -0.024820352 0.006912401
0.011303438 -0.058442708 0.011176178 0.36327747 0.04003757 -0.11927084 -0.077175006 -0.040725254
0.12787698 -0.059225034 -0.06266766 0.051398892 -0.17043476 0.050392833 0.08603911 -0.087833084
-0.1082332 0.100197636 -0.09221334 0.12481138 -0.14018431 -0.009677675 -0.07339292 -0.023217777
0.090598576 -0.106067725 0.06675653 -0.05220161 0.088227056 -0.12666759 -0.12470413 -0.087397
0.013784567 0.003744483 0.09227484 0.094250455 -0.11417546 -0.014178283 -0.050784882 -0.09179324
-0.2086109 -0.051541507 -0.012805785 0.0056620957 -0.2555477 -0.030216344 -0.08197725 0.033163887
0.08777071 -0.09627868 -0.0046580113 -0.14539671 -0.44982177 -0.18445665 -0.1141111 0.0006977652
0.02121348 0.07537902 -0.12925944 0.06959996 -0.0660321 -0.08165443 0.07370866 0.061039675
-0.13882546 -0.004445142 -0.20824422 -0.25666723 -0.0837437 -0.14065962 -0.05240981 0.011207872
-0.21756224 0.038399283 0.001737964 0.08389752 0.014323394 0.030141512 -0.00059647363 0.07138029
-0.09950161 -0.015107009 -0.20105284 -0.035449088 0.012500149 -0.21501705 -0.13050194 0.2191752
0.033196878 -0.027209789 -0.15823643 0.027704043 -0.19562913 -0.06497156 0.056321472 0.026207643
00000000: a666 943d 807d b33a 907e 5bbc fa8e 613d
00000010: 6836 5bbd 233c 15be b600 4d3d fb25 353e
00000020: b057 f1bd 87b5 88bd 7af7 c63d 0b91 033e
00000030: 79bc 8d3a 9b9d 4abd 4fa3 11bd beb0 da3d
00000040: 368d c43b cb48 683b 433a 27bd 0df6 7abd
00000050: 47ab 6e3e 409f a5bc 6232 c3bc 48f7 04bd
00000060: 2b4c 1a3d edc0 943c 963a 683d d4bf 9abd
00000070: b634 833d 662d c0bc a3ba d93d 39c5 93bd
00000080: d0de b4bb 8f6d aabd 3bf6 72bc 176c fdbd
00000090: 151e 113e 5f56 7abd 319b 893d e2ac 383e
000000a0: 5797 f73d 5d5d 763d c5d9 99bd cc8d 003d
000000b0: cf93 033e 5a83 3d3e 68be f93d 9fc2 0abd
000000c0: ef1b 823d db01 993d b8e2 783d b929 7bbb
000000d0: d9fb df3d f27f 073d bc69 9abd 341d 533f
000000e0: acdb 8bbd 6e6f 44bd ee3c 833b 0a47 7abc
000000f0: 047c 223d 554a 8f3d 2b32 423e 9b3b 82bc
00000100: b812 84bd ccaf cebd 6132 aabc d996 debb
00000110: 5b2d 05be fc1d 8d3a 6e4b 1b3e 35e7 0a3d
00000120: 09e2 06be e3fe cdbd 4536 2c3d 9c74 08bc
00000130: 4bec 863d 1148 27bc 4c78 653d 1087 54bd
00000140: 597e 05bd fdf9 803d fa9a e03d 0f7f f03d
00000150: ca77 f73e 7689 0cbe e86f 813d 48ea 343e
00000160: d21d f7bd 3021 ed3c 3cca 91bd 66f9 db3d
00000170: 193d 833d 80a4 2fbe 9682 613d a7c6 06be
00000180: d493 8dbd b303 5e3e e862 5c3d a5d9 853e
00000190: 05d2 e73c 3e14 afbc b542 35bd db37 efbd
000001a0: 24b5 263e 3031 eabc 4aaa 99bd 5985 a63d
000001b0: 3248 f8bd a7eb edba 4f40 a2bd 92d6 933d
000001c0: e6be a63c 55fc 9e3b 99b9 c5bd 62e0 e13d
000001d0: 4e3d 0b3d 76a3 e73c 602d b73d 0692 0d3f
000001e0: 3f69 1a3c b2c4 063d 7e57 003d dd03 2abd
000001f0: fb8e a7bd bd99 80bd c03f 05be dd0b 1bbd
00000200: 09f7 f2ba 8adb e1bd 1d97 a5bd 07b9 87bd
00000210: 75b8 dfbd 3804 203e 2ffa 19bd 1aa2 95bc
00000220: 1c1d c2bd d443 2a3c 0a66 8abc e102 22be
00000230: f734 3a3e 13ad 9abc 181b 60bc 424a d0bd
00000240: e25b 28bd e5e0 3c3d 4aed 17bd de38 e6bc
00000250: 45dc fc3e d64d 21bd ef0a 86bd 4a98 443c
00000260: 36e8 0cbe 1686 b1bd 62a8 813d 9897 e0bd
00000270: 0231 95bd 1432 573a 0d54 cbbc 6c81 e23b
00000280: 0e32 393c 9f61 6fbd 4a1c 373c 81ff b93e
00000290: 6ffe 233d 4544 f4bd ee0d 9ebd 86cf 26bd
000002a0: 2ff2 023e f395 72bd e757 80bd a587 523d
000002b0: 7386 2ebe b768 4e3d 4635 b03d d5e1 b3bd
000002c0: 5ea9 ddbd 6b34 cd3d 59da bcbd 1c9d ff3d
000002d0: 7a8c 0fbe 1c8f 1ebc 074f 96bd 3533 bebc
000002e0: bf8b b93d 093a d9bd a6b7 883d 5bd1 55bd
000002f0: 63b0 b43d 26b5 01be e164 ffbd 33fd b2bd
00000300: aad8 613c 0066 753b 97fa bc3d 6206 c13d
00000310: d3d4 e9bd 074c 68bc cf03 50bd 18fe bbbd
00000320: 199e 55be 301d 53bd 5bcf 51bc 1a89 b93b
00000330: 26d7 82be 4488 f7bc b0e3 a7bd dbd6 073d
00000340: 21c1 b33d c22d c5bd 3ba2 98bb e0e2 14be
00000350: 0a4f e6be 34e2 3cbe 15b3 e9bd 3bea 363a
00000360: e4c7 ad3c 5160 9a3d 965c 04be 6d8a 8e3d
00000370: d63b 87bd 703a a7bd 91f4 963d bd04 7a3d
00000380: 4328 0ebe 8ea8 91bb f93d 55be e369 83be
00000390: d181 abbd 1309 10be abab 56bd 39a1 373c
000003a0: a3c8 5ebe 9148 1d3d 65cc e33a 77d2 ab3d
000003b0: abac 6a3c 55eb f63c ab5c 1cba d42f 923d
000003c0: 80c7 cbbd 6383 77bc cce0 4dbe 1033 11bd
000003d0: 6dcd 4c3c 6e2d 5cbe 4da2 05be 776f 603e
000003e0: 73f9 073d 10e7 debc bb08 22be 97f3 e23c
000003f0: 0153 48be cf0f 85bd 58b1 663d 69b1 d63c

output_layer.weight f4 [1, 133]
0.027690606 0.044949245 0.029865365 -0.052624904 -0.029788293 -0.013479263 -0.00077333214 0.056002393
0.0817119 0.03287856 -0.11159098 0.036915597 0.09385027 -0.01616435 0.012741466 0.07532809
0.07513916 -0.040574282 0.010825002 0.029679788 -0.035251014 0.036197513 -0.10266384 -0.005953113
-0.17479706 -0.022957796 0.0031293323 -0.07441703 -0.0070195943 -0.041883368 -0.052858658 0.02793631
0.024808008 -0.03608221 0.03985205 -0.036788 0.11976684 0.035376254 -0.005300658 0.15617406
-0.048370074 0.002732896 -0.111975014 0.04650409 -0.055447783 -0.06019729 0.055864803 -0.01587309
-0.14280887 0.018169465 -0.010895917 -0.056406118 -0.059323743 0.019785047 0.025510242 0.024332218
0.03225794 -0.09203781 -0.06092874 -0.11422465 0.019068552 -0.10802604 0.053386085 -0.05153354
-0.079850845 -0.0070549264 0.03009679 -0.044665106 -0.023417717 -0.017201958 -0.0023996104 0.07638848
-0.057765417 0.01325153 0.04481701 -0.027740732 -0.048735447 0.05348942 0.043828364 -0.012732229
0.08569922 -0.07728483 -0.035507377 0.00032386382 -0.0034080278 -0.01983152 0.03184424 -0.031054776
0.09698549 0.023502897 -0.0067662364 0.026958399 -0.024030188 -0.008520672 0.043648247 0.018120205
0.041838318 0.09165725 -0.039622355 0.025556704 0.03608905 0.03815785 -0.049876835 -0.05413891
-0.024742825 -0.020408016 0.027715633 0.1123885 0.002989049 -0.0021677832 -0.04813547 0.012342331
0.06521662 -0.024781484 -0.030535854 0.011091231 0.007960598 0.0038048981 0.017507017 0.025246447
-0.029737245 -0.100102335 0.059465636 0.06947688 -0.019819776 0.020380596 -0.02108905 0.070178084
0.17332825 0.36206228 -0.703963 -0.511363 -0.62200385
00000000: 69d7 e23c b31c 383d 36a8 f43c 368d 57bd
00000010: 9406 f4bc 20d8 5cbc 71b9 4aba c462 653d
00000020: 9258 a73d abab 063d d089 e4bd cf34 173d
00000030: 9234 c03d 196b 84bc 95c1 503c 9d45 9a3d
00000040: 8fe2 993d 3831 26bd 595b 313c 0723 f33c
00000050: 5e63 10bd d843 143d 6b41 d2bd 5512 c3bb
00000060: 00fe 32be fd11 bcbc 7c15 4d3b f567 98bd
00000070: a004 e6bb e58d 2bbd 5282 58bd b0da e43c
00000080: 2a3a cb3c f0ca 13bd e73b 233d 04af 16bd
00000090: 5148 f53d b1e6 103d 24b1 adbb 18ec 1f3e
000000a0: b31f 46bd 631a 333b 2853 e5bd 137b 3e3d
000000b0: 371d 63bd 6f91 76bd 7ed2 643d 4808 82bc
000000c0: 7d3c 12be 21d8 943c ca84 32bc 1a0a 67bd
000000d0: 74fd 72bd 4014 a23c dbfa d03c 5c54 c73c
000000e0: e720 043d 527e bcbd 6a90 79bd 9dee e9bd
000000f0: a735 9c3c c23c ddbd 5eab 5a3d d514 53bd
00000100: d788 a3bd 032d e7bb 8b8d f63c c2f2 36bd
00000110: 83d6 bfbc 1feb 8cbc c842 1dbb 9071 9c3d
00000120: 6e9b 6cbd f21c 593c 0b92 373d 8840 e3bc
00000130: d29e 47bd b917 5b3d 5f85 333d d79a 50bc
00000140: 1383 af3d 8247 9ebd 2f70 11bd 44cc a939
00000150: 3859 5fbb b675 a2bc 1b6f 023d 9666 febc
00000160: 54a0 c63d 2689 c03c 4eb7 ddbb dcd7 dc3c
00000170: f5da c4bc 4a9a 0bbc 81c8 323d d370 943c
00000180: a85e 2b3d ccb6 bb3d 0d4b 22bd 4b5c d13c
00000190: 1dd2 133d 684b 1c3d a74b 4cbd c3c0 5dbd
000001a0: 77b1 cabc b62e a7bc e50b e33c f12b e63d
000001b0: ece3 433b 5e11 0ebb b329 45bd 7d37 4a3c
000001c0: 4b90 853d 8a02 cbbc 5426 fabc ffb7 353c
000001d0: 2b6d 023c 995b 793b e06a 8f3c a3d1 ce3c
000001e0: 869b f3bc 7402 cdbd 3d92 733d e549 8e3d
000001f0: 155d a2bc 35f5 a63c f2c2 acbc 87b9 8f3d
00000200: f67c 313e 3a60 b93e eb36 34bf b0e8 02bf
00000210: a53b 1fbf
